…
","execution_count":14,"metadata":{"colab":{"base_uri":"https://localhost:8080/"},"executionInfo":{"elapsed":14,"status":"ok","timestamp":1748327059565,"user":{"displayName":"Pg-DAI","userId":"10432057515612960804"},"user_tz":-330},"id":"G3ozSV3x5btL","outputId":"f602f5e1-821e-49aa-f1b1-007b15ceaaf6"},"outputs":[{"name":"stdout","output_type":"stream","text":["----------------------------------------------------------------\n","        Layer (type)               Output Shape         Param #\n","================================================================\n","            Conv2d-1           [-1, 32, 32, 32]             896\n","       BatchNorm2d-2           [-1, 32, 32, 32]              64\n","              ReLU-3           [-1, 32, 32, 32]               0\n","           Dropout-4           [-1, 32, 32, 32]               0\n","         MaxPool2d-5           [-1, 32, 16, 16]               0\n","            Conv2d-6           [-1, 64, 16, 16]          18,496\n","       BatchNorm2d-7           [-1, 64, 16, 16]             128\n","              ReLU-8           [-1, 64, 16, 16]               0\n","           Dropout-9           [-1, 64, 16, 16]               0\n","        MaxPool2d-10             [-1, 64, 8, 8]               0\n","           Conv2d-11            [-1, 128, 8, 8]          73,856\n","      BatchNorm2d-12            [-1, 128, 8, 8]             256\n","             ReLU-13            [-1, 128, 8, 8]               0\n","          Dropout-14            [-1, 128, 8, 8]               0\n","        MaxPool2d-15            [-1, 128, 4, 4]               0\n","           Conv2d-16            [-1, 256, 2, 2]         295,168\n","      BatchNorm2d-17            [-1, 256, 2, 2]             512\n","             ReLU-18            [-1, 256, 2, 2]               0\n","          Dropout-19            [-1, 256, 2, 2]               0\n","          Flatten-20                 [-1, 1024]               0\n","           Linear-21                  [-1, 256]         262,400\n","      BatchNorm1d-22                  [-1, 256]             512\n","             ReLU-23                  [-1, 256]               0\n","          Dropout-24                  [-1, 256]               0\n","           Linear-25                   [-1, 10]           2,570\n","       LogSoftmax-26                   [-1, 10]               0\n","================================================================\n","Total params: 654,858\n","Trainable params: 654,858\n","Non-trainable params: 0\n","----------------------------------------------------------------\n","Input size (MB): 0.01\n","Forward/backward pass size (MB): 1.91\n","Params size (MB): 2.50\n","Estimated Total Size (MB): 4.42\n","------------------------------------------
…
